…
oss='categorical_crossentropy', optimizer=opt_rms, metrics=['accuracy'])\n    return model\ncnn = model() \ncnn.summary()\n \n# Fit model\ncnn4 = cnn.fit(x_train, y_train, batch_size=batch_size, epochs=epochs, validation_data=(x_test,y_test),shuffle=True)",
      "execution_count": 14,
      "outputs": [
        {
          "output_type": "stream",
          "text": "_________________________________________________________________\nLayer (type)                 Output Shape              Param #   \n=================================================================\nconv2d_5 (Conv2D)            (None, 32, 32, 32)        896       \n_________________________________________________________________\nactivation_7 (Activation)    (None, 32, 32, 32)        0         \n_________________________________________________________________\nbatch_normalization_1 (Batch (None, 32, 32, 32)        128       \n_________________________________________________________________\nconv2d_6 (Conv2D)            (None, 32, 32, 32)        9248      \n_________________________________________________________________\nactivation_8 (Activation)    (None, 32, 32, 32)        0         \n_________________________________________________________________\nbatch_normalization_2 (Batch (None, 32, 32, 32)        128       \n_________________________________________________________________\nmax_pooling2d_3 (MaxPooling2 (None, 32, 16, 16)        0         \n_________________________________________________________________\ndropout_4 (Dropout)          (None, 32, 16, 16)        0         \n_________________________________________________________________\nconv2d_7 (Conv2D)            (None, 64, 16, 16)        18496     \n_________________________________________________________________\nactivation_9 (Activation)    (None, 64, 16, 16)        0         \n_________________________________________________________________\nbatch_normalization_3 (Batch (None, 64, 16, 16)        64        \n_________________________________________________________________\nconv2d_8 (Conv2D)            (None, 64, 16, 16)        36928     \n_________________________________________________________________\nactivation_10 (Activation)   (None, 64, 16, 16)        0         \n_________________________________________________________________\nbatch_normalization_4 (Batch (None, 64, 16, 16)        64        \n_________________________________________________________________\nmax_pooling2d_4 (MaxPooling2 (None, 64, 8, 8)          0         \n_________________________________________________________________\ndropout_5 (Dropout)          (None, 64, 8, 8)          0         \n_________________________________________________________________\nconv2d_9 (Conv2D)            (None, 128, 8, 8)         73856     \n_________________________________________________________________\nactivation_11 (Activation)   (None, 128, 8, 8)         0         \n_________________________________________________________________\nbatch_normalization_5 (Batch (None, 128, 8, 8)         32        \n_________________________________________________________________\nconv2d_10 (Conv2D)           (None, 128, 8, 8)         147584    \n_________________________________________________________________\nactivation_12 (Activation)   (None, 128, 8, 8)         0         \n_________________________________________________________________\nbatch_normalization_6 (Batch (None, 128, 8, 8)         32        \n_________________________________________________________________\nmax_pooling2d_5 (MaxPooling2 (None, 128, 4, 4)         0         \n_________________________________________________________________\ndropout_6 (Dropout)          (None, 128, 4, 4)         0         \n_________________________________________________________________\nflatten_2 (Flatten)          (None, 2048)              0         \n_________________________________________________________________\ndense_3 (Dense)              (None, 10)                20490     \n=================================================================\nTotal params: 307,946\nTrainable params: 307,722\nNon-trainable params: 224\n_________________________________________________________________\nTrain on 50000 samples, validate on 10000 samples\nEpoch 1/100\n50000/50000 [==============================] - 53s 1ms/step - loss: 1.7353 - acc: 0.4284 - val_loss: 1.1638 - val_acc:
…
